…
ystem.cpu.15.cpu_percent": 9.78, "system.proc.cpu.threads": 19, "system.disk": 33.8, "system.proc.memory.availableMB": 5074.49, "system.memory": 84.15, "system.proc.memory.rssMB": 1920.66, "system.proc.memory.percent": 6.0, "system.network.sent": 68513.33, "system.network.recv": 87514.33, "_wandb": true, "_timestamp": 1669124404.777367, "_runtime": 20.248773}']}, 'output.log': {'offset': 0, 'content': ['ERROR 2022-11-22T13:40:06.850072                  from  n    params  module                                  arguments\n', 'ERROR 2022-11-22T13:40:06.850072   0                -1  1       928  models.common.Conv                      [3, 32, 3, 1]\n', 'ERROR 2022-11-22T13:40:06.850072   1                -1  1     18560  models.common.Conv                      [32, 64, 3, 2]\n', 'ERROR 2022-11-22T13:40:06.850072   2                -1  1     36992  models.common.Conv                      [64, 64, 3, 1]\n', 'ERROR 2022-11-22T13:40:06.850072   3                -1  1     73984  models.common.Conv                      [64, 128, 3, 2]\n', 'ERROR 2022-11-22T13:40:06.850072   4                -1  1      8320  models.common.Conv                      [128, 64, 1, 1]\n', 'ERROR 2022-11-22T13:40:06.850072   5                -2  1      8320  models.common.Conv                      [128, 64, 1, 1]\n', 'ERROR 2022-11-22T13:40:06.850072   6                -1  1     36992  models.common.Conv                      [64, 64, 3, 1]\n', 'ERROR 2022-11-22T13:40:06.850072   7                -1  1     36992  models.common.Conv                      [64, 64, 3, 1]\n', 'ERROR 2022-11-22T13:40:06.850072   8                -1  1     36992  models.common.Conv                      [64, 64, 3, 1]\n', 'ERROR 2022-11-22T13:40:06.850072   9                -1  1     36992  models.common.Conv                      [64, 64, 3, 1]\n', 'ERROR 2022-11-22T13:40:06.850072  10  [-1, -3, -5, -6]  1         0  models.common.Concat                    [1]\n', 'ERROR 2022-11-22T13:40:06.850072  11                -1  1     66048  models.common.Conv                      [256, 256, 1, 1]\n', 'ERROR 2022-11-22T13:40:06.850072  12                -1  1         0  models.common.MP                        []\n', 'ERROR 2022-11-22T13:40:06.850072  13                -1  1     33024  models.common.Conv                      [256, 128, 1, 1]\n', 'ERROR 2022-11-22T13:40:06.850072  14                -3  1     33024  models.common.Conv                      [256, 128, 1, 1]\n', 'ERROR 2022-11-22T13:40:06.850072  15                -1  1    147712  models.common.Conv                      [128, 128, 3, 2]\n', 'ERROR 2022-11-22T13:40:06.850072  16          [-1, -3]  1         0  models.common.Concat                    [1]\n', 'ERROR 2022-11-22T13:40:06.850072  17                -1  1     33024  models.common.Conv                      [256, 128, 1, 1]\n', 'ERROR 2022-11-22T13:40:06.850072  18                -2  1     33024  models.common.Conv                      [256, 128, 1, 1]\n', 'ERROR 2022-11-22T13:40:06.850072  19                -1  1    147712  models.common.Conv                      [128, 128, 3, 1]\n', 'ERROR 2022-11-22T13:40:06.850072  20                -1  1    147712  models.common.Conv                      [128, 128, 3, 1]\n', 'ERROR 2022-11-22T13:40:06.850072  21                -1  1    147712  models.common.Conv                      [128, 128, 3, 1]\n', 'ERROR 2022-11-22T13:40:06.850072  22                -1  1    147712  models.common.Conv                      [128, 128, 3, 1]\n', 'ERROR 2022-11-22T13:40:06.850072  23  [-1, -3, -5, -6]  1         0  models.common.Concat                    [1]\n', 'ERROR 2022-11-22T13:40:06.850072  24                -1  1    263168  models.common.Conv                      [512, 512, 1, 1]\n', 'ERROR 2022-11-22T13:40:06.850072  25                -1  1         0  models.common.MP                        []\n', 'ERROR 2022-11-22T13:40:06.850072  26                -1  1    131584  models.common.Conv                      [512, 256, 1, 1]\n', 'ERROR 2022-11-22T13:40:06.850072  27                -3  1    131584  models.common.Conv                      [512, 256, 1, 1]\n', 'ERROR 2022-11-22T13:40:06.850072  28                -1  1    590336  models.common.Conv                      [256, 256, 3, 2]\n', 'ERROR 2022-11-22T13:40:06.850072  29          [-1, -3]  1         0  models.common.Concat                    [1]\n', 'ERROR 2022-11-22T13:40:06.850072  30                -1  1    131584  models.common.Conv                      [512, 256, 1, 1]\n', 'ERROR 2022-11-22T13:40:06.850072  31                -2  1    131584  models.common.Conv                      [512, 256, 1, 1]\n', 'ERROR 2022-11-22T13:40:06.850072  32                -1  1    590336  models.common.Conv                      [256, 256, 3, 1]\n', 'ERROR 2022-11-22T13:40:06.850072  33                -1  1    590336  models.common.Conv                      [256, 256, 3, 1]\n', 'ERROR 2022-11-22T13:40:06.850072  34                -1  1    590336  models.common.Conv                      [256, 256, 3, 1]\n', 'ERROR 2022-11-22T13:40:06.850072  35                -1  1    590336  models.common.Conv                      [256, 256, 3, 1]\n', 'ERROR 2022-11-22T13:40:06.850072  36  [-1, -3, -5, -6]  1         0  models.common.Concat                    [1]\n', 'ERROR 2022-11-22T13:40:06.850072  37                -1  1   1050624  models.common.Conv                      [1024, 1024, 1, 1]\n', 'ERROR 2022-11-22T13:40:06.850072  38                -1  1         0  models.common.MP                        []\n', 'ERROR 2022-11-22T13:40:06.850072  39                -1  1    525312  models.common.Conv                      [1024, 512, 1, 1]\n', 'ERROR 2022-11-22T13:40:06.850072  40                -3  1    525312  models.common.Conv                      [1024, 512, 1, 1]\n', 'ERROR 2022-11-22T13:40:06.850072  41                -1  1   2360320  models.common.Conv                      [512, 512, 3, 2]\n', 'ERROR 2022-11-22T13:40:06.850072  42          [-1, -3]  1         0  models.common.Concat                    [1]\n', 'ERROR 2022-11-22T13:40:06.850072  43                -1  1    262656  models.common.Conv                      [1024, 256, 1, 1]\n', 'ERROR 2022-11-22T13:40:06.850072  44                -2  1    262656  models.common.Conv                      [1024, 256, 1, 1]\n', 'ERROR 2022-11-22T13:40:06.850072  45                -1  1    590336  models.common.Conv                      [256, 256, 3, 1]\n', 'ERROR 2022-11-22T13:40:06.850072  46                -1  1    590336  models.common.Conv                      [256, 256, 3, 1]\n', 'ERROR 2022-11-22T13:40:06.850072  47                -1  1    590336  models.common.Conv                      [256, 256, 3, 1]\n', 'ERROR 2022-11-22T13:40:06.850072  48                -1  1    590336  models.common.Conv                      [256, 256, 3, 1]\n', 'ERROR 2022-11-22T13:40:06.850072  49  [-1, -3, -5, -6]  1         0  models.common.Concat                    [1]\n', 'ERROR 2022-11-22T13:40:06.850072  50                -1  1   1050624  models.common.Conv                      [1024, 1024, 1, 1]\n', 'ERROR 2022-11-22T13:40:06.850072  51                -1  1   7609344  models.common.SPPCSPC                   [1024, 512, 1]\n', 'ERROR 2022-11-22T13:40:06.850072  52                -1  1    131584  models.common.Conv                      [512, 256, 1, 1]\n', "ERROR 2022-11-22T13:40:06.850072  53                -1  1         0  torch.nn.modules.upsampling.Upsample    [None, 2, 'nearest']\n", 'ERROR 2022-11-22T13:40:06.850072  54                37  1    262656  models.common.Conv                      [1024, 256, 1, 1]\n', 'ERROR 2022-11-22T13:40:06.850072  55          [-1, -2]  1         0  models.common.Concat                    [1]\n', 'ERROR 2022-11-22T13:40:06.850072  56                -1  1    131584  models.common.Conv                      [512, 256, 1, 1]\n', 'ERROR 2022-11-22T13:40:06.850072  57                -2  1    131584  models.common.Conv                      [512, 256, 1, 1]\n', 'ERROR 2022-11-22T13:40:06.850072  58                -1  1    295168  models.common.Conv                      [256, 128, 3, 1]\n', 'ERROR 2022-11-22T13:40:06.850072  59                -1  1    147712  models.common.Conv                      [128, 128, 3, 1]\n', 'ERROR 2022-11-22T13:40:06.850072  60                -1  1    147712  models.common.Conv                      [128, 128, 3, 1]\n', 'ERROR 2022-11-22T13:40:06.850072  61                -1  1    147712  models.common.Conv                      [128, 128, 3, 1]\n', 'ERROR 2022-11-22T13:40:06.850072  62[-1, -2, -3, -4, -5, -6]  1         0  models.common.Concat                    [1]\n', 'ERROR 2022-11-22T13:40:06.850072  63                -1  1    262656  models.common.Conv                      [1024, 256, 1, 1]\n', 'ERROR 2022-11-22T13:40:06.850072  64                -1  1     33024  models.common.Conv                      [256, 128, 1, 1]\n', "ERROR 2022-11-22T13:40:06.850072  65                -1  1         0  torch.nn.modules.upsampling.Upsample    [None, 2, 'nearest']\n", 'ERROR 2022-11-22T13:40:06.850072  66                24  1     65792  models.common.Conv                      [512, 128, 1, 1]\n', 'ERROR 2022-11-22T13:40:06.850072  67          [-1, -2]  1         0  models.common.Concat                    [1]\n', 'ERROR 2022-11-22T13:40:06.850072  68                -1  1     33024  models.common.Conv                      [256, 128, 1, 1]\n', 'ERROR 2022-11-22T13:40:06.850072  69                -2  1     33024  models.common.Conv                      [256, 128, 1, 1]\n', 'ERROR 2022-11-22T13:40:06.850072  70                -1  1     73856  models.common.Conv                      [128, 64, 3, 1]\n', 'ERROR 2022-11-22T13:40:06.850072  71                -1  1     36992  models.common.Conv                      [64, 64, 3, 1]\n', 'ERROR 2022-11-22T13:40:06.850072  72                -1  1     36992  models.common.Conv                      [64, 64, 3, 1]\n', 'ERROR 2022-11-22T13:40:06.850072  73                -1  1     36992  models.common.Conv                      [64, 64, 3, 1]\n', 'ERROR 2022-11-22T13:40:06.850072  74[-1, -2, -3, -4, -5, -6]  1         0  models.common.Concat                    [1]\n', 'ERROR 2022-11-22T13:40:06.850072  75                -1  1     65792  models.common.Conv                      [512, 128, 1, 1]\n', 'ERROR 2022-11-22T13:40:06.850072  76                -1  1         0  models.common.MP                        []\n', 'ERROR 2022-11-22T13:40:06.850072  77                -1  1     16640  models.common.Conv                      [128, 128, 1, 1]\n', 'ERROR 2022-11-22T13:40:06.850072  78                -3  1     16640  models.common.Conv                      [128, 128, 1, 1]\n', 'ERROR 2022-11-22T13:40:06.850072  79                -1  1    147712  models.common.Conv                      [128, 128, 3, 2]\n', 'ERROR 2022-11-22T13:40:06.850072  80      [-1, -3, 63]  1         0  models.common.Concat                    [1]\n', 'ERROR 2022-11-22T13:40:06.850072  81                -1  1    131584  models.common.Conv                      [512, 256, 1, 1]\n', 'ERROR 2022-11-22T13:40:06.850072  82                -2  1    131584  models.common.Conv                      [512, 256, 1, 1]\n', 'ERROR 2022-11-22T13:40:06.850072  83                -1  1    295168  models.common.Conv                      [256, 128, 3, 1]\n', 'ERROR 2022-11-22T13:40:06.850072  84                -1  1    147712  models.common.Conv                      [128, 128, 3, 1]\n', 'ERROR 2022-11-22T13:40:06.850072  85                -1  1    147712  models.common.Conv                      [128, 128, 3, 1]\n', 'ERROR 2022-11-22T13:40:06.850072  86                -1  1    147712  models.common.Conv                      [128, 128, 3, 1]\n', 'ERROR 2022-11-22T13:40:06.850072  87[-1, -2, -3, -4, -5, -6]  1         0  models.common.Concat                    [1]\n', 'ERROR 2022-11-22T13:40:06.850072  88                -1  1    262656  models.common.Conv                      [1024, 256, 1, 1]\n', 'ERROR 2022-11-22T13:40:06.850072  89                -1  1         0  models.common.MP                        []\n', 'ERROR 2022-11-22T13:40:06.850072  90                -1  1     66048  models.common.Conv                      [256, 256, 1, 1]\n', 'ERROR 2022-11-22T13:40:06.850072  91                -3  1     66048  models.common.Conv                      [256, 256, 1, 1]\n', 'ERROR 2022-11-22T13:40:06.850072  92                -1  1    590336  models.common.Conv                      [256, 256, 3, 2]\n', 'ERROR 2022-11-22T13:40:06.850072  93      [-1, -3, 51]  1         0  models.common.Concat                    [1]\n', 'ERROR 2022-11-22T13:40:06.850072  94                -1  1    525312  models.common.Conv                      [1024, 512, 1, 1]\n', 'ERROR 2022-11-22T13:40:06.850072  95                -2  1    525312  models.common.Conv                      [1024, 512, 1, 1]\n', 'ERROR 2022-11-22T13:40:06.850072  96                -1  1   1180160  models.common.Conv                      [512, 256, 3, 1]\n', 'ERROR 2022-11-22T13:40:06.850072  97                -1  1    590336  models.common.Conv                      [256, 256, 3, 1]\n', 'ERROR 2022-11-22T13:40:06.850072  98                -1  1    590336  models.common.Conv                      [256, 256, 3, 1]\n', 'ERROR 2022-11-22T13:40:06.850072  99                -1  1    590336  models.common.Conv                      [256, 256, 3, 1]\n', 'ERROR 2022-11-22T13:40:06.850072 100[-1, -2, -3, -4, -5, -6]  1         0  models.common.Concat                    [1]\n', 'ERROR 2022-11-22T13:40:06.850072 101                -1  1   1049600  models.common.Conv                      [2048, 512, 1, 1]\n', 'ERROR 2022-11-22T13:40:06.850072 102                75  1    328704  models.common.RepConv                   [128, 256, 3, 1]\n', 'ERROR 2022-11-22T13:40:06.850072 103                88  1   1312768  models.common.RepConv                   [256, 512, 3, 1]\n', 'ERROR 2022-11-22T13:40:06.850072 104               101  1   5246976  models.common.RepConv                   [512, 1024, 3, 1]\n', 'ERROR 2022-11-22T13:40:06.850072 105   [102, 103, 104]  1    479265  models.yolo.Detect                      [80, [[12, 16, 19, 36, 40, 28], [36, 75, 76, 55, 72, 146], [142, 110, 192, 243, 459, 401]], [256, 512, 1024]]\n', 'ERROR 2022-11-22T13:40:06.850072 /home/rp/Softwares/anaconda3/envs/dyh/lib/python3.8/site-packages/torch/functional.py:504: UserWarning: torch.meshgrid: i
…
