…
cpu.13.cpu_percent": 5.93, "system.cpu.14.cpu_percent": 11.82, "system.cpu.15.cpu_percent": 10.07, "system.proc.cpu.threads": 16, "system.proc.memory.availableMB": 5081.31, "system.memory": 84.12, "system.proc.memory.rssMB": 1920.08, "system.proc.memory.percent": 6.0, "system.disk": 33.8, "_wandb": true, "_timestamp": 1669124404.721795, "_runtime": 20.985355}']}, 'output.log': {'offset': 0, 'content': ['ERROR 2022-11-22T13:40:06.737748                  from  n    params  module                                  arguments\n', 'ERROR 2022-11-22T13:40:06.737748   0                -1  1       928  models.common.Conv                      [3, 32, 3, 1]\n', 'ERROR 2022-11-22T13:40:06.737748   1                -1  1     18560  models.common.Conv                      [32, 64, 3, 2]\n', 'ERROR 2022-11-22T13:40:06.737748   2                -1  1     36992  models.common.Conv                      [64, 64, 3, 1]\n', 'ERROR 2022-11-22T13:40:06.737748   3                -1  1     73984  models.common.Conv                      [64, 128, 3, 2]\n', 'ERROR 2022-11-22T13:40:06.737748   4                -1  1      8320  models.common.Conv                      [128, 64, 1, 1]\n', 'ERROR 2022-11-22T13:40:06.737748   5                -2  1      8320  models.common.Conv                      [128, 64, 1, 1]\n', 'ERROR 2022-11-22T13:40:06.737748   6                -1  1     36992  models.common.Conv                      [64, 64, 3, 1]\n', 'ERROR 2022-11-22T13:40:06.737748   7                -1  1     36992  models.common.Conv                      [64, 64, 3, 1]\n', 'ERROR 2022-11-22T13:40:06.737748   8                -1  1     36992  models.common.Conv                      [64, 64, 3, 1]\n', 'ERROR 2022-11-22T13:40:06.737748   9                -1  1     36992  models.common.Conv                      [64, 64, 3, 1]\n', 'ERROR 2022-11-22T13:40:06.737748  10  [-1, -3, -5, -6]  1         0  models.common.Concat                    [1]\n', 'ERROR 2022-11-22T13:40:06.737748  11                -1  1     66048  models.common.Conv                      [256, 256, 1, 1]\n', 'ERROR 2022-11-22T13:40:06.737748  12                -1  1         0  models.common.MP                        []\n', 'ERROR 2022-11-22T13:40:06.737748  13                -1  1     33024  models.common.Conv                      [256, 128, 1, 1]\n', 'ERROR 2022-11-22T13:40:06.737748  14                -3  1     33024  models.common.Conv                      [256, 128, 1, 1]\n', 'ERROR 2022-11-22T13:40:06.737748  15                -1  1    147712  models.common.Conv                      [128, 128, 3, 2]\n', 'ERROR 2022-11-22T13:40:06.737748  16          [-1, -3]  1         0  models.common.Concat                    [1]\n', 'ERROR 2022-11-22T13:40:06.737748  17                -1  1     33024  models.common.Conv                      [256, 128, 1, 1]\n', 'ERROR 2022-11-22T13:40:06.737748  18                -2  1     33024  models.common.Conv                      [256, 128, 1, 1]\n', 'ERROR 2022-11-22T13:40:06.737748  19                -1  1    147712  models.common.Conv                      [128, 128, 3, 1]\n', 'ERROR 2022-11-22T13:40:06.737748  20                -1  1    147712  models.common.Conv                      [128, 128, 3, 1]\n', 'ERROR 2022-11-22T13:40:06.737748  21                -1  1    147712  models.common.Conv                      [128, 128, 3, 1]\n', 'ERROR 2022-11-22T13:40:06.737748  22                -1  1    147712  models.common.Conv                      [128, 128, 3, 1]\n', 'ERROR 2022-11-22T13:40:06.737748  23  [-1, -3, -5, -6]  1         0  models.common.Concat                    [1]\n', 'ERROR 2022-11-22T13:40:06.737748  24                -1  1    263168  models.common.Conv                      [512, 512, 1, 1]\n', 'ERROR 2022-11-22T13:40:06.737748  25                -1  1         0  models.common.MP                        []\n', 'ERROR 2022-11-22T13:40:06.737748  26                -1  1    131584  models.common.Conv                      [512, 256, 1, 1]\n', 'ERROR 2022-11-22T13:40:06.737748  27                -3  1    131584  models.common.Conv                      [512, 256, 1, 1]\n', 'ERROR 2022-11-22T13:40:06.737748  28                -1  1    590336  models.common.Conv                      [256, 256, 3, 2]\n', 'ERROR 2022-11-22T13:40:06.737748  29          [-1, -3]  1         0  models.common.Concat                    [1]\n', 'ERROR 2022-11-22T13:40:06.737748  30                -1  1    131584  models.common.Conv                      [512, 256, 1, 1]\n', 'ERROR 2022-11-22T13:40:06.737748  31                -2  1    131584  models.common.Conv                      [512, 256, 1, 1]\n', 'ERROR 2022-11-22T13:40:06.737748  32                -1  1    590336  models.common.Conv                      [256, 256, 3, 1]\n', 'ERROR 2022-11-22T13:40:06.737748  33                -1  1    590336  models.common.Conv                      [256, 256, 3, 1]\n', 'ERROR 2022-11-22T13:40:06.737748  34                -1  1    590336  models.common.Conv                      [256, 256, 3, 1]\n', 'ERROR 2022-11-22T13:40:06.737748  35                -1  1    590336  models.common.Conv                      [256, 256, 3, 1]\n', 'ERROR 2022-11-22T13:40:06.737748  36  [-1, -3, -5, -6]  1         0  models.common.Concat                    [1]\n', 'ERROR 2022-11-22T13:40:06.737748  37                -1  1   1050624  models.common.Conv                      [1024, 1024, 1, 1]\n', 'ERROR 2022-11-22T13:40:06.737748  38                -1  1         0  models.common.MP                        []\n', 'ERROR 2022-11-22T13:40:06.737748  39                -1  1    525312  models.common.Conv                      [1024, 512, 1, 1]\n', 'ERROR 2022-11-22T13:40:06.737748  40                -3  1    525312  models.common.Conv                      [1024, 512, 1, 1]\n', 'ERROR 2022-11-22T13:40:06.737748  41                -1  1   2360320  models.common.Conv                      [512, 512, 3, 2]\n', 'ERROR 2022-11-22T13:40:06.737748  42          [-1, -3]  1         0  models.common.Concat                    [1]\n', 'ERROR 2022-11-22T13:40:06.737748  43                -1  1    262656  models.common.Conv                      [1024, 256, 1, 1]\n', 'ERROR 2022-11-22T13:40:06.737748  44                -2  1    262656  models.common.Conv                      [1024, 256, 1, 1]\n', 'ERROR 2022-11-22T13:40:06.737748  45                -1  1    590336  models.common.Conv                      [256, 256, 3, 1]\n', 'ERROR 2022-11-22T13:40:06.737748  46                -1  1    590336  models.common.Conv                      [256, 256, 3, 1]\n', 'ERROR 2022-11-22T13:40:06.737748  47                -1  1    590336  models.common.Conv                      [256, 256, 3, 1]\n', 'ERROR 2022-11-22T13:40:06.737748  48                -1  1    590336  models.common.Conv                      [256, 256, 3, 1]\n', 'ERROR 2022-11-22T13:40:06.737748  49  [-1, -3, -5, -6]  1         0  models.common.Concat                    [1]\n', 'ERROR 2022-11-22T13:40:06.737748  50                -1  1   1050624  models.common.Conv                      [1024, 1024, 1, 1]\n', 'ERROR 2022-11-22T13:40:06.737748  51                -1  1   7609344  models.common.SPPCSPC                   [1024, 512, 1]\n', 'ERROR 2022-11-22T13:40:06.737748  52                -1  1    131584  models.common.Conv                      [512, 256, 1, 1]\n', "ERROR 2022-11-22T13:40:06.737748  53                -1  1         0  torch.nn.modules.upsampling.Upsample    [None, 2, 'nearest']\n", 'ERROR 2022-11-22T13:40:06.737748  54                37  1    262656  models.common.Conv                      [1024, 256, 1, 1]\n', 'ERROR 2022-11-22T13:40:06.737748  55          [-1, -2]  1         0  models.common.Concat                    [1]\n', 'ERROR 2022-11-22T13:40:06.737748  56                -1  1    131584  models.common.Conv                      [512, 256, 1, 1]\n', 'ERROR 2022-11-22T13:40:06.737748  57                -2  1    131584  models.common.Conv                      [512, 256, 1, 1]\n', 'ERROR 2022-11-22T13:40:06.737748  58                -1  1    295168  models.common.Conv                      [256, 128, 3, 1]\n', 'ERROR 2022-11-22T13:40:06.737748  59                -1  1    147712  models.common.Conv                      [128, 128, 3, 1]\n', 'ERROR 2022-11-22T13:40:06.737748  60                -1  1    147712  models.common.Conv                      [128, 128, 3, 1]\n', 'ERROR 2022-11-22T13:40:06.737748  61                -1  1    147712  models.common.Conv                      [128, 128, 3, 1]\n', 'ERROR 2022-11-22T13:40:06.737748  62[-1, -2, -3, -4, -5, -6]  1         0  models.common.Concat                    [1]\n', 'ERROR 2022-11-22T13:40:06.737748  63                -1  1    262656  models.common.Conv                      [1024, 256, 1, 1]\n', 'ERROR 2022-11-22T13:40:06.737748  64                -1  1     33024  models.common.Conv                      [256, 128, 1, 1]\n', "ERROR 2022-11-22T13:40:06.737748  65                -1  1         0  torch.nn.modules.upsampling.Upsample    [None, 2, 'nearest']\n", 'ERROR 2022-11-22T13:40:06.737748  66                24  1     65792  models.common.Conv                      [512, 128, 1, 1]\n', 'ERROR 2022-11-22T13:40:06.737748  67          [-1, -2]  1         0  models.common.Concat                    [1]\n', 'ERROR 2022-11-22T13:40:06.737748  68                -1  1     33024  models.common.Conv                      [256, 128, 1, 1]\n', 'ERROR 2022-11-22T13:40:06.737748  69                -2  1     33024  models.common.Conv                      [256, 128, 1, 1]\n', 'ERROR 2022-11-22T13:40:06.737748  70                -1  1     73856  models.common.Conv                      [128, 64, 3, 1]\n', 'ERROR 2022-11-22T13:40:06.737748  71                -1  1     36992  models.common.Conv                      [64, 64, 3, 1]\n', 'ERROR 2022-11-22T13:40:06.737748  72                -1  1     36992  models.common.Conv                      [64, 64, 3, 1]\n', 'ERROR 2022-11-22T13:40:06.737748  73                -1  1     36992  models.common.Conv                      [64, 64, 3, 1]\n', 'ERROR 2022-11-22T13:40:06.737748  74[-1, -2, -3, -4, -5, -6]  1         0  models.common.Concat                    [1]\n', 'ERROR 2022-11-22T13:40:06.737748  75                -1  1     65792  models.common.Conv                      [512, 128, 1, 1]\n', 'ERROR 2022-11-22T13:40:06.737748  76                -1  1         0  models.common.MP                        []\n', 'ERROR 2022-11-22T13:40:06.737748  77                -1  1     16640  models.common.Conv                      [128, 128, 1, 1]\n', 'ERROR 2022-11-22T13:40:06.737748  78                -3  1     16640  models.common.Conv                      [128, 128, 1, 1]\n', 'ERROR 2022-11-22T13:40:06.737748  79                -1  1    147712  models.common.Conv                      [128, 128, 3, 2]\n', 'ERROR 2022-11-22T13:40:06.737748  80      [-1, -3, 63]  1         0  models.common.Concat                    [1]\n', 'ERROR 2022-11-22T13:40:06.737748  81                -1  1    131584  models.common.Conv                      [512, 256, 1, 1]\n', 'ERROR 2022-11-22T13:40:06.737748  82                -2  1    131584  models.common.Conv                      [512, 256, 1, 1]\n', 'ERROR 2022-11-22T13:40:06.737748  83                -1  1    295168  models.common.Conv                      [256, 128, 3, 1]\n', 'ERROR 2022-11-22T13:40:06.737748  84                -1  1    147712  models.common.Conv                      [128, 128, 3, 1]\n', 'ERROR 2022-11-22T13:40:06.737748  85                -1  1    147712  models.common.Conv                      [128, 128, 3, 1]\n', 'ERROR 2022-11-22T13:40:06.737748  86                -1  1    147712  models.common.Conv                      [128, 128, 3, 1]\n', 'ERROR 2022-11-22T13:40:06.737748  87[-1, -2, -3, -4, -5, -6]  1         0  models.common.Concat                    [1]\n', 'ERROR 2022-11-22T13:40:06.737748  88                -1  1    262656  models.common.Conv                      [1024, 256, 1, 1]\n', 'ERROR 2022-11-22T13:40:06.737748  89                -1  1         0  models.common.MP                        []\n', 'ERROR 2022-11-22T13:40:06.737748  90                -1  1     66048  models.common.Conv                      [256, 256, 1, 1]\n', 'ERROR 2022-11-22T13:40:06.737748  91                -3  1     66048  models.common.Conv                      [256, 256, 1, 1]\n', 'ERROR 2022-11-22T13:40:06.737748  92                -1  1    590336  models.common.Conv                      [256, 256, 3, 2]\n', 'ERROR 2022-11-22T13:40:06.737748  93      [-1, -3, 51]  1         0  models.common.Concat                    [1]\n', 'ERROR 2022-11-22T13:40:06.737748  94                -1  1    525312  models.common.Conv                      [1024, 512, 1, 1]\n', 'ERROR 2022-11-22T13:40:06.737748  95                -2  1    525312  models.common.Conv                      [1024, 512, 1, 1]\n', 'ERROR 2022-11-22T13:40:06.737748  96                -1  1   1180160  models.common.Conv                      [512, 256, 3, 1]\n', 'ERROR 2022-11-22T13:40:06.737748  97                -1  1    590336  models.common.Conv                      [256, 256, 3, 1]\n', 'ERROR 2022-11-22T13:40:06.737748  98                -1  1    590336  models.common.Conv                      [256, 256, 3, 1]\n', 'ERROR 2022-11-22T13:40:06.737748  99                -1  1    590336  models.common.Conv                      [256, 256, 3, 1]\n', 'ERROR 2022-11-22T13:40:06.737748 100[-1, -2, -3, -4, -5, -6]  1         0  models.common.Concat                    [1]\n', 'ERROR 2022-11-22T13:40:06.737748 101                -1  1   1049600  models.common.Conv                      [2048, 512, 1, 1]\n', 'ERROR 2022-11-22T13:40:06.737748 102                75  1    328704  models.common.RepConv                   [128, 256, 3, 1]\n', 'ERROR 2022-11-22T13:40:06.737748 103                88  1   1312768  models.common.RepConv                   [256, 512, 3, 1]\n', 'ERROR 2022-11-22T13:40:06.737748 104               101  1   5246976  models.common.RepConv                   [512, 1024, 3, 1]\n', 'ERROR 2022-11-22T13:40:06.737748 105   [102, 103, 104]  1    479265  models.yolo.Detect                      [80, [[12, 16, 19, 36, 40, 28], [36, 75, 76, 55, 72, 146], [142, 110, 192, 243, 459, 401]], [256, 512, 1024]]\n', 'ERROR 2022-11-22T13:40:06.737748 /home/rp/Softwares/anaconda3/envs/dyh/lib/python3.8/site-packages/torch/functional.py:504: UserWarning: torch.meshgrid: i
…
